…
            "change data_format to 'NTCD', new dimention is (29, 1, 400, 20)\n",
            "change data_format to 'NTCD', new dimention is (144, 1, 400, 20)\n",
            "Model: \"encoder\"\n",
            "_________________________________________________________________\n",
            " Layer (type)                Output Shape              Param #   \n",
            "=================================================================\n",
            " input_1 (InputLayer)        [(None, 1, 400, 20)]      0         \n",
            "                                                                 \n",
            " conv2d (Conv2D)             (None, 1, 400, 20)        25620     \n",
            "                                                                 \n",
            " batch_normalization (BatchN  (None, 1, 400, 20)       80        \n",
            " ormalization)                                                   \n",
            "                                                                 \n",
            " average_pooling2d (AverageP  (None, 1, 100, 20)       0         \n",
            " ooling2D)                                                       \n",
            "                                                                 \n",
            " conv2d_1 (Conv2D)           (None, 1, 100, 10)        6410      \n",
            "                                                                 \n",
            " batch_normalization_1 (Batc  (None, 1, 100, 10)       40        \n",
            " hNormalization)                                                 \n",
            "                                                                 \n",
            " average_pooling2d_1 (Averag  (None, 1, 25, 10)        0         \n",
            " ePooling2D)                                                     \n",
            "                                                                 \n",
            " flatten (Flatten)           (None, 250)               0         \n",
            "                                                                 \n",
            " dense (Dense)               (None, 20)                5020      \n",
            "                                                                 \n",
            "=================================================================\n",
            "Total params: 37,170\n",
            "Trainable params: 37,110\n",
            "Non-trainable params: 60\n",
            "_________________________________________________________________\n",
            "Model: \"decoder\"\n",
            "_________________________________________________________________\n",
            " Layer (type)                Output Shape              Param #   \n",
            "=================================================================\n",
            " decoder_input (InputLayer)  [(None, 20)]              0         \n",
            "                                                                 \n",
            " dense_1 (Dense)             (None, 250)               5250      \n",
            "                                                                 \n",
            " reshape (Reshape)           (None, 1, 25, 10)         0         \n",
            "                                                                 \n",
            " conv2d_transpose (Conv2DTra  (None, 1, 100, 10)       6410      \n",
            " nspose)                                                         \n",
            "                                                                 \n",
            " conv2d_transpose_1 (Conv2DT  (None, 1, 400, 20)       6420      \n",
            " ranspose)                                                       \n",
            "                                                                 \n",
            "=================================================================\n",
            "Total params: 18,080\n",
            "Trainable params: 18,080\n",
            "Non-trainable params: 0\n",
            "_________________________________________________________________\n",
            "Model: \"MIN2Net\"\n",
            "__________________________________________________________________________________________________\n",
            " Layer (type)                   Output Shape         Param #     Connected to                     \n",
            "==================================================================================================\n",
            " input_1 (InputLayer)           [(None, 1, 400, 20)  0           []                               \n",
            "                                ]                                                                 \n",
            "                                                                                                  \n",
            " encoder (Functional)           (None, 20)           37170       ['input_1[0][0]']                \n",
            "                                                                                                  \n",
            " decoder (Functional)           (None, 1, 400, 20)   18080       ['encoder[0][0]']                \n",
            "                                                                                                  \n",
            " classifier (Dense)             (None, 2)            42          ['encoder[0][0]']                \n",
            "                                                                                                  \n",
            "==================================================================================================\n",
            "Total params: 55,292\n",
            "Trainable params: 55,232\n",
            "Non-trainable params: 60\n",
…
            "change data_format to 'NCTD', new dimention is (29, 20, 400, 1)\n",
            "change data_format to 'NCTD', new dimention is (144, 20, 400, 1)\n",
            "Model: \"model\"\n",
            "_________________________________________________________________\n",
            " Layer (type)                Output Shape              Param #   \n",
            "=================================================================\n",
            " input_3 (InputLayer)        [(None, 20, 400, 1)]      0         \n",
            "                                                                 \n",
            " conv2d_4 (Conv2D)           (None, 20, 400, 8)        1600      \n",
            "                                                                 \n",
            " batch_normalization_4 (Batc  (None, 20, 400, 8)       32        \n",
            " hNormalization)                                                 \n",
            "                                                                 \n",
            " depthwise_conv2d (Depthwise  (None, 1, 400, 16)       320       \n",
            " Conv2D)                                                         \n",
            "                                                                 \n",
            " batch_normalization_5 (Batc  (None, 1, 400, 16)       64        \n",
            " hNormalization)                                                 \n",
            "                                                                 \n",
            " activation (Activation)     (None, 1, 400, 16)        0         \n",
            "                                                                 \n",
            " average_pooling2d_4 (Averag  (None, 1, 100, 16)       0         \n",
            " ePooling2D)                                                     \n",
            "                                                                 \n",
            " dropout (Dropout)           (None, 1, 100, 16)        0         \n",
            "                                                                 \n",
            " separable_conv2d (Separable  (None, 1, 100, 16)       1056      \n",
            " Conv2D)                                                         \n",
            "                                                                 \n",
            " batch_normalization_6 (Batc  (None, 1, 100, 16)       64        \n",
            " hNormalization)                                                 \n",
            "                                                                 \n",
            " activation_1 (Activation)   (None, 1, 100, 16)        0         \n",
            "                                                                 \n",
            " average_pooling2d_5 (Averag  (None, 1, 12, 16)        0         \n",
            " ePooling2D)                                                     \n",
            "                                                                 \n",
            " dropout_1 (Dropout)         (None, 1, 12, 16)         0         \n",
            "                                                                 \n",
            " flatten (Flatten)           (None, 192)               0         \n",
            "                                                                 \n",
            " dense (Dense)               (None, 2)                 386       \n",
            "                                                                 \n",
            " softmax (Activation)        (None, 2)                 0         \n",
            "                                                                 \n",
            "=================================================================\n",
            "Total params: 3,522\n",
            "Trainable params: 3,442\n",
            "Non-trainable params: 80\n",
            "_________________________________________________________________\n",
            "The first kernel size is (1, 200)\n",
…
            "change data_format to 'NCTD', new dimention is (29, 20, 400, 1)\n",
            "change data_format to 'NCTD', new dimention is (144, 20, 400, 1)\n",
            "Model: \"model_2\"\n",
            "_________________________________________________________________\n",
            " Layer (type)                Output Shape              Param #   \n",
            "=================================================================\n",
            " input_5 (InputLayer)        [(None, 20, 400, 1)]      0         \n",
            "                                                                 \n",
            " conv2d_6 (Conv2D)           (None, 20, 396, 25)       150       \n",
            "                                                                 \n",
            " conv2d_7 (Conv2D)           (None, 1, 396, 25)        12525     \n",
            "                                                                 \n",
            " batch_normalization_10 (Bat  (None, 1, 396, 25)       4         \n",
            " chNormalization)                                                \n",
            "                                                                 \n",
            " activation_4 (Activation)   (None, 1, 396, 25)        0         \n",
            "                                                                 \n",
            " max_pooling2d (MaxPooling2D  (None, 1, 198, 25)       0         \n",
            " )                                                               \n",
            "                                                                 \n",
            " dropout_4 (Dropout)         (None, 1, 198, 25)        0         \n",
            "                                                                 \n",
            " conv2d_8 (Conv2D)           (None, 1, 194, 50)        6300      \n",
            "                                                                 \n",
            " batch_normalization_11 (Bat  (None, 1, 194, 50)       4         \n",
            " chNormalization)                                                \n",
            "                                                                 \n",
            " activation_5 (Activation)   (None, 1, 194, 50)        0         \n",
            "                                                                 \n",
            " max_pooling2d_1 (MaxPooling  (None, 1, 97, 50)        0         \n",
            " 2D)                                                             \n",
            "                                                                 \n",
            " dropout_5 (Dropout)         (None, 1, 97, 50)         0         \n",
            "                                                                 \n",
            " conv2d_9 (Conv2D)           (None, 1, 93, 100)        25100     \n",
            "                                                                 \n",
            " batch_normalization_12 (Bat  (None, 1, 93, 100)       4         \n",
            " chNormalization)                                                \n",
            "                                                                 \n",
            " activation_6 (Activation)   (None, 1, 93, 100)        0         \n",
            "                                                                 \n",
            " max_pooling2d_2 (MaxPooling  (None, 1, 46, 100)       0         \n",
            " 2D)                                                             \n",
            "                                                                 \n",
            " dropout_6 (Dropout)         (None, 1, 46, 100)        0         \n",
            "                                                                 \n",
            " conv2d_10 (Conv2D)          (None, 1, 42, 200)        100200    \n",
            "                                                                 \n",
            " batch_normalization_13 (Bat  (None, 1, 42, 200)       4         \n",
            " chNormalization)                                                \n",
            "                                                                 \n",
            " activation_7 (Activation)   (None, 1, 42, 200)        0         \n",
            "                                                                 \n",
            " max_pooling2d_3 (MaxPooling  (None, 1, 21, 200)       0         \n",
            " 2D)                                                             \n",
            "                                                                 \n",
            " dropout_7 (Dropout)         (None, 1, 21, 200)        0         \n",
            "                                                                 \n",
            " flatten_2 (Flatten)         (None, 4200)              0         \n",
            "                                                                 \n",
            " dense_4 (Dense)             (None, 2)                 8402      \n",
            "                                                                 \n",
            " activation_8 (Activation)   (None, 2)                 0         \n",
            "                                                                 \n",
            "=================================================================\n",
            "Total params: 152,693\n",
            "Trainable params: 152,685\n",
            "Non-trainable params: 8\n",
            "_________________________________________________________________\n",
            "Epoch 1/200\n",
…
            "                                                                                                  \n",
            " input_25 (InputLayer)          [(None, 28, 28, 1)]  0           []                               \n",
            "                                                                                                  \n",
            " input_26 (InputLayer)          [(None, 28, 28, 1)]  0           []                               \n",
            "                                                                                                  \n",
            " conv2d_16 (Conv2D)             (None, 28, 28, 10)   100         ['input_7[0][0]']                \n",
            "                                                                                                  \n",
            " conv2d_19 (Conv2D)             (None, 28, 28, 10)   100         ['input_8[0][0]']                \n",
            "                                                                                                  \n",
            " conv2d_22 (Conv2D)             (None, 28, 28, 10)   100         ['input_9[0][0]']                \n",
            "                                                                                                  \n",
            " conv2d_25 (Conv2D)             (None, 28, 28, 10)   100         ['input_10[0][0]']               \n",
            "                                                                                                  \n",
            " conv2d_28 (Conv2D)             (None, 28, 28, 10)   100         ['input_11[0][0]']               \n",
            "                                                                                                  \n",
            " conv2d_31 (Conv2D)             (None, 28, 28, 10)   100         ['input_12[0][0]']               \n",
            "                                                                                                  \n",
            " conv2d_34 (Conv2D)             (None, 28, 28, 10)   100         ['input_13[0][0]']               \n",
            "                                                                                                  \n",
            " conv2d_37 (Conv2D)             (None, 28, 28, 10)   100         ['input_14[0][0]']               \n",
            "                                                                                                  \n",
            " conv2d_40 (Conv2D)             (None, 28, 28, 10)   100         ['input_15[0][0]']               \n",
            "                                                                                                  \n",
            " conv2d_43 (Conv2D)             (None, 28, 28, 10)   100         ['input_16[0][0]']               \n",
            "                                                                                                  \n",
            " conv2d_46 (Conv2D)             (None, 28, 28, 10)   100         ['input_17[0][0]']               \n",
            "                                                                                                  \n",
            " conv2d_49 (Conv2D)             (None, 28, 28, 10)   100         ['input_18[0][0]']               \n",
            "                                                                                                  \n",
            " conv2d_52 (Conv2D)             (None, 28, 28, 10)   100         ['input_19[0][0]']               \n",
            "                                                                                                  \n",
            " conv2d_55 (Conv2D)             (None, 28, 28, 10)   100         ['input_20[0][0]']               \n",
            "                                                                                                  \n",
            " conv2d_58 (Conv2D)             (None, 28, 28, 10)   100         ['input_21[0][0]']               \n",
            "                                                                                                  \n",
            " conv2d_61 (Conv2D)             (None, 28, 28, 10)   100         ['input_22[0][0]']               \n",
            "                                                                                                  \n",
            " conv2d_64 (Conv2D)             (None, 28, 28, 10)   100         ['input_23[0][0]']               \n",
            "                                                                                                  \n",
            " conv2d_67 (Conv2D)             (None, 28, 28, 10)   100         ['input_24[0][0]']               \n",
            "                                                                                                  \n",
            " conv2d_70 (Conv2D)             (None, 28, 28, 10)   100         ['input_25[0][0]']               \n",
            "                                                                                                  \n",
            " conv2d_73 (Conv2D)             (None, 28, 28, 10)   100         ['input_26[0][0]']               \n",
            "                                                                                                  \n",
            " conv2d_17 (Conv2D)             (None, 28, 28, 14)   1274        ['conv2d_16[0][0]']              \n",
            "                                                                                                  \n",
            " conv2d_20 (Conv2D)             (None, 28, 28, 14)   1274        ['conv2d_19[0][0]']              \n",
            "                                                                                                  \n",
            " conv2d_23 (Conv2D)             (None, 28, 28, 14)   1274        ['conv2d_22[0][0]']              \n",
            "                                                                                                  \n",
            " conv2d_26 (Conv2D)             (None, 28, 28, 14)   1274        ['conv2d_25[0][0]']              \n",
            "                                                                                                  \n",
            " conv2d_29 (Conv2D)             (None, 28, 28, 14)   1274        ['conv2d_28[0][0]']              \n",
            "                                                                                                  \n",
            " conv2d_32 (Conv2D)             (None, 28, 28, 14)   1274        ['conv2d_31[0][0]']              \n",
            "                                                                                                  \n",
            " conv2d_35 (Conv2D)             (None, 28, 28, 14)   1274        ['conv2d_34[0][0]']              \n",
            "                                                                                                  \n",
            " conv2d_38 (Conv2D)             (None, 28, 28, 14)   1274        ['conv2d_37[0][0]']              \n",
            "                                                                                                  \n",
            " conv2d_41 (Conv2D)             (None, 28, 28, 14)   1274        ['conv2d_40[0][0]']              \n",
            "                                                                                                  \n",
            " conv2d_44 (Conv2D)             (None, 28, 28, 14)   1274        ['conv2d_43[0][0]']              \n",
            "                                                                                                  \n",
            " conv2d_47 (Conv2D)             (None, 28, 28, 14)   1274        ['conv2d_46[0][0]']              \n",
            "                                                                                                  \n",
            " conv2d_50 (Conv2D)             (None, 28, 28, 14)   1274        ['conv2d_49[0][0]']              \n",
            "                                                                                                  \n",
            " conv2d_53 (Conv2D)             (None, 28, 28, 14)   1274        ['conv2d_52[0][0]']              \n",
            "                                                                                                  \n",
            " conv2d_56 (Conv2D)             (None, 28, 28, 14)   1274        ['conv2d_55[0][0]']              \n",
            "                                                                                                  \n",
            " conv2d_59 (Conv2D)             (None, 28, 28, 14)   1274        ['conv2d_58[0][0]']              \n",
            "                                                                                                  \n",
            " conv2d_62 (Conv2D)             (None, 28, 28, 14)   1274        ['conv2d_61[0][0]']              \n",
            "                                                                                                  \n",
            " conv2d_65 (Conv2D)             (None, 28, 28, 14)   1274        ['conv2d_64[0][0]']              \n",
            "                                                                                                  \n",
            " conv2d_68 (Conv2D)             (None, 28, 28, 14)   1274        ['conv2d_67[0][0]']              \n",
            "                                                                                                  \n",
            " conv2d_71 (Conv2D)             (None, 28, 28, 14)   1274        ['conv2d_70[0][0]']              \n",
            "                                                                                                  \n",
            " conv2d_74 (Conv2D)             (None, 28, 28, 14)   1274        ['conv2d_73[0][0]']              \n",
            "                                                                                                  \n",
            " conv2d_18 (Conv2D)             (None, 28, 28, 18)   2286        ['conv2d_17[0][0]']              \n",
            "                                                                                                  \n",
            " conv2d_21 (Conv2D)             (None, 28, 28, 18)   2286        ['conv2d_20[0][0]']              \n",
            "                                                                                                  \n",
            " conv2d_24 (Conv2D)             (None, 28, 28, 18)   2286        ['conv2d_23[0][0]']              \n",
            "                                                                                                  \n",
            " conv2d_27 (Conv2D)             (None, 28, 28, 18)   2286        ['conv2d_26[0][0]']              \n",
            "                                                                                                  \n",
            " conv2d_30 (Conv2D)             (None, 28, 28, 18)   2286        ['conv2d_29[0][0]']              \n",
            "                                                                                                  \n",
            " conv2d_33 (Conv2D)             (None, 28, 28, 18)   2286        ['conv2d_32[0][0]']              \n",
            "                                                                                                  \n",
            " conv2d_36 (Conv2D)             (None, 28, 28, 18)   2286        ['conv2d_35[0][0]']              \n",
            "                                                                                                  \n",
            " conv2d_39 (Conv2D)             (None, 28, 28, 18)   2286        ['conv2d_38[0][0]']              \n",
            "                                                                                                  \n",
            " conv2d_42 (Conv2D)             (None, 28, 28, 18)   2286        ['conv2d_41[0][0]']              \n",
            "                                                                                                  \n",
            " conv2d_45 (Conv2D)             (None, 28, 28, 18)   2286        ['conv2d_44[0][0]']              \n",
            "                                                                                                  \n",
            " conv2d_48 (Conv2D)             (None, 28, 28, 18)   2286        ['conv2d_47[0][0]']              \n",
            "                                                                                                  \n",
            " conv2d_51 (Conv2D)             (None, 28, 28, 18)   2286        ['conv2d_50[0][0]']              \n",
            "                                                                                                  \n",
            " conv2d_54 (Conv2D)             (None, 28, 28, 18)   2286        ['conv2d_53[0][0]']              \n",
            "                                                                                                  \n",
            " conv2d_57 (Conv2D)             (None, 28, 28, 18)   2286        ['conv2d_56[0][0]']              \n",
            "                                                                                                  \n",
            " conv2d_60 (Conv2D)             (None, 28, 28, 18)   2286        ['conv2d_59[0][0]']              \n",
            "                                                                                                  \n",
            " conv2d_63 (Conv2D)             (None, 28, 28, 18)   2286        ['conv2d_62[0][0]']              \n",
            "                                                                                                  \n",
            " conv2d_66 (Conv2D)             (None, 28, 28, 18)   2286        ['conv2d_65[0][0]']              \n",
            "                                                                                                  \n",
            " conv2d_69 (Conv2D)             (None, 28, 28, 18)   2286        ['conv2d_68[0][0]']              \n",
            "                                                                                                  \n",
            " conv2d_72 (Conv2D)             (None, 28, 28, 18)   2286        ['conv2d_71[0][0]']              \n",
            "                                                                                                  \n",
            " conv2d_75 (Conv2D)             (None, 28, 28, 18)   2286        ['conv2d_74[0][0]']              \n",
            "                                                                                                  \n",
            " flatten_4 (Flatten)            (None, 14112)        0           ['conv2d_18[0][0]']              \n",
            "                                                                                                  \n",
            " flatten_5 (Flatten)            (None, 14112)        0           ['conv2d_21[0][0]']              \n",
            "                                                                                                  \n",
            " flatten_6 (Flatten)            (None, 14112)        0           ['conv2d_24[0][0]']              \n",
            "                                                                                                  \n",
            " flatten_7 (Flatten)            (None, 14112)        0           ['conv2d_27[0][0]']              \n",
            "                                                                                                  \n",
            " flatten_8 (Flatten)            (None, 14112)        0           ['conv2d_30[0][0]']              \n",
            "                                                                                                  \n",
            " flatten_9 (Flatten)            (None, 14112)        0           ['conv2d_33[0][0]']              \n",
            "                                                                                                  \n",
            " flatten_10 (Flatten)           (None, 14112)        0           ['conv2d_36[0][0]']              \n",
            "                                                                                                  \n",
            " flatten_11 (Flatten)           (None, 14112)        0           ['conv2d_39[0][0]']              \n",
            "                                                                                                  \n",
            " flatten_12 (Flatten)           (None, 14112)        0           ['conv2d_42[0][0]']              \n",
            "                                                                                                  \n",
            " flatten_13 (Flatten)           (None, 14112)        0           ['conv2d_45[0][0]']              \n",
            "                                                                                                  \n",
            " flatten_14 (Flatten)           (None, 14112)        0           ['conv2d_48[0][0]']              \n",
            "                                                                                                  \n",
            " flatten_15 (Flatten)           (None, 14112)        0           ['conv2d_51[0][0]']              \n",
            "                                                                                                  \n",
            " flatten_16 (Flatten)           (None, 14112)        0           ['conv2d_54[0][0]']              \n",
            "                                                                                                  \n",
            " flatten_17 (Flatten)           (None, 14112)        0           ['conv2d_57[0][0]']              \n",
            "                                                                                                  \n",
            " flatten_18 (Flatten)           (None, 14112)        0           ['conv2d_60[0][0]']              \n",
            "                                                                                                  \n",
            " flatten_19 (Flatten)           (None, 14112)        0           ['conv2d_63[0][0]']              \n",
            "                                                                                                  \n",
            " flatten_20 (Flatten)           (None, 14112)        0           ['conv2d_66[0][0]']              \n",
            "                                                                                                  \n",
            " flatten_21 (Flatten)           (None, 14112)        0           ['conv2d_69[0][0]']              \n",
            "                                                                                                  \n",
            " flatten_22 (Flatten)           (None, 14112)        0           ['conv2d_72[0][0]']              \n",
            "                                                                                                  \n",
            " flatten_23 (Flatten)           (None, 14112)        0           ['conv2d_75[0][0]']              \n",
            "                                                                                                  \n",
            " dense_6 (Dense)                (None, 256)          3612928     ['flatten_4[0][0]']              \n",
            "                                                                                                  \n",
            " dense_7 (Dense)                (None, 256)          3612928     ['flatten_5[0][0]']              \n",
            "                                                                                                  \n",
            " dense_8 (Dense)                (None, 256)          3612928     ['flatten_6[0][0]']              \n",
            "                                                                                                  \n",
            " dense_9 (Dense)                (None, 256)          3612928     ['flatten_7[0][0]']              \n",
            "                                                                                                  \n",
            " dense_10 (Dense)               (None, 256)          3612928     ['flatten_8[0][0]']              \n",
            "                                                                                                  \n",
            " dense_11 (Dense)               (None, 256)          3612928     ['flatten_9[0][0]']              \n",
            "                                                                                                  \n",
            " dense_12 (Dense)               (None, 256)          3612928     ['flatten_10[0][0]']             \n",
            "                                                                                                  \n",
            " dense_13 (Dense)               (None, 256)          3612928     ['flatten_11[0][0]']             \n",
            "                                                                                                  \n",
            " dense_14 (Dense)               (None, 256)          3612928     ['flatten_12[0][0]']             \n",
            "                                                                                                  \n",
            " dense_15 (Dense)               (None, 256)          3612928     ['flatten_13[0][0]']             \n",
            "                                                                                                  \n",
            " dense_16 (Dense)               (None, 256)          3612928     ['flatten_14[0][0]']             \n",
            "                                                                                                  \n",
            " dense_17 (Dense)               (None, 256)          3612928     ['flatten_15[0][0]']             \n",
            "                                                                                                  \n",
            " dense_18 (Dense)               (None, 256)          3612928     ['flatten_16[0][0]']             \n",
            "                                                                                                  \n",
            " dense_19 (Dense)               (None, 256)          3612928     ['flatten_17[0][0]']             \n",
            "                                                                                                  \n",
            " dense_20 (Dense)               (None, 256)          3612928     ['flatten_18[0][0]']             \n",
            "                                                                                                  \n",
            " dense_21 (Dense)               (None, 256)          3612928     ['flatten_19[0][0]']             \n",
            "                                                                                                  \n",
            " dense_22 (Dense)               (None, 256)          3612928     ['flatten_20[0][0]']             \n",
            "                                                                                                  \n",
            " dense_23 (Dense)               (None, 256)          3612928     ['flatten_21[0][0]']             \n",
            "                                                                                                  \n",
            " dense_24 (Dense)               (None, 256)          3612928     ['flatten_22[0][0]']             \n",
            "                                                                                                  \n",
            " dense_25 (Dense)               (None, 256)          3612928     ['flatten_23[0][0]']             \n",
            "                                                                                                  \n",
            " concatenate (Concatenate)      (None, 5120)         0           ['dense_6[0][0]',                \n",
            "                                                                  'dense_7[0][0]',                \n",
            "                                                                  'dense_8[0][0]',                \n",
            "                                                                  'dense_9[0][0]',                \n",
            "                                                                  'dense_10[0][0]',               \n",
…
